…
, there are two possible explanations here:\n\n1. I messed up my architecture so that the upscaling prevents the model from predicting any more refined images than what I am getting. Or,\n\n2. I just need to train for longer (although this seems unlikely because the validation loss almost completely plateaued and wasn't getting better)\n\nHere is the model.summary() from Keras:\n\n&gt; Layer (type)                    Output Shape         Param #     Connected to\n==================================================================================================\ninput_1 (InputLayer)            (None, 64, 64, 1)    0\n__________________________________________________________________________________________________\ninput_2 (InputLayer)            (None, 64, 64, 3)    0\n__________________________________________________________________________________________________\nconv2d_1 (Conv2D)               (None, 32, 32, 64)   128         input_1[0][0]\n__________________________________________________________________________________________________\nconv2d_3 (Conv2D)               (None, 32, 32, 64)   1792        input_2[0][0]\n__________________________________________________________________________________________________\nleaky_re_lu_1 (LeakyReLU)       (None, 32, 32, 64)   0           conv2d_1[0][0]\n__________________________________________________________________________________________________\nleaky_re_lu_3 (LeakyReLU)       (None, 32, 32, 64)   0           conv2d_3[0][0]\n__________________________________________________________________________________________________\nmax_pooling2d_1 (MaxPooling2D)  (None, 16, 16, 64)   0           leaky_re_lu_1[0][0]\n__________________________________________________________________________________________________\nmax_pooling2d_3 (MaxPooling2D)  (None, 16, 16, 64)   0           leaky_re_lu_3[0][0]\n__________________________________________________________________________________________________\nconv2d_2 (Conv2D)               (None, 8, 8, 128)    8320        max_pooling2d_1[0][0]\n__________________________________________________________________________________________________\nconv2d_4 (Conv2D)               (None, 8, 8, 128)    73856       max_pooling2d_3[0][0]\n__________________________________________________________________________________________________\nleaky_re_lu_2 (LeakyReLU)       (None, 8, 8, 128)    0           conv2d_2[0][0]\n__________________________________________________________________________________________________\nleaky_re_lu_4 (LeakyReLU)       (None, 8, 8, 128)    0           conv2d_4[0][0]\n__________________________________________________________________________________________________\nmax_pooling2d_2 (MaxPooling2D)  (None, 4, 4, 128)    0           leaky_re_lu_2[0][0]\n__________________________________________________________________________________________________\nmax_pooling2d_4 (MaxPooling2D)  (None, 4, 4, 128)    0           leaky_re_lu_4[0][0]\n__________________________________________________________________________________________________\nconcatenate_1 (Concatenate)     (None, 4, 4, 256)    0           max_pooling2d_2[0][0]\n                                                                 max_pooling2d_4[0][0]\n__________________________________________________________________________________________________\nup_sampling2d_1 (UpSampling2D)  (None, 16, 16, 256)  0           concatenate_1[0][0]\n__________________________________________________________________________________________________\nconv2d_5 (Conv2D)               (None, 8, 8, 64)     147520      up_sampling2d_1[0][0]\n__________________________________________________________________________________________________\nleaky_re_lu_5 (LeakyReLU)       (None, 8, 8, 64)     0           conv2d_5[0][0]\n__________________________________________________________________________________________________\ndropout_1 (Dropout)             (None, 8, 8, 64)     0           leaky_re_lu_5[0][0]\n__________________________________________________________________________________________________\nup_sampling2d_2 (UpSampling2D)  (None, 32, 32, 64)   0           dropout_1[0][0]\n__________________________________________________________________________________________________\nconv2d_6 (Conv2D)               (None, 16, 16, 3)    1731        up_sampling2d_2[0][0]\n__________________________________________________________________________________________________\nleaky_re_lu_6 (LeakyReLU)       (None, 16, 16, 3)    0           conv2d_6[0][0]\n__________________________________________________________________________________________________\nup_sampling2d_3 (UpSampling2D)  (None, 64, 64, 3)    0           leaky_re_lu_6[0][0]\n__________________________________________________________________________________________________\nconv2d_7 (Conv2D)               (None, 32, 32, 32)   896         up_sampling2d_3[0][0]\n__________________________________________________________________________________________________\nleaky_re_lu_7 (LeakyReLU)       (None, 32, 32, 32)   0           conv2d_7[0][0]\n__________________________________________________________________________________________________\nup_sampling2d_4 (UpSampling2D)  (None, 128, 128, 32) 0           leaky_re_lu_7[0][0]\n__________________________________________________________________________________________________\nconv2d_8 (Conv2D)               (None, 64, 64, 3)    867         up_sampling2d_4[0][0]\n==================================================================================================\nTotal params: 235,110\nTrainable params: 235,110\nNon-trainable params: 0\n__________________________________________________________________________________________________\n\nIs this a sub-optimal network architecture? How can I fix it?", "link": "https://www.reddit
…
9 12:19:20", "content": "Hi there, \n\nSo i'm currently breaking my brains over how a CNN actually works internally. I did read 'A guide to convolution arithmetic for deep learning'. That's all quite clear, but restricts purely to the convolution arithmetic.\n\nHow does it actually fit together in e.g. PyTorch?\n\nTake this DCGAN generator architecture for example. \n\n----------------------------------------------------------------\n        Layer (type)               Output Shape         Param #\n================================================================\n   ConvTranspose2d-1           [-1, 1024, 4, 4]       1,638,400\n         LeakyReLU-2           [-1, 1024, 4, 4]               0\n   ConvTranspose2d-3            [-1, 512, 8, 8]       8,388,608\n         LeakyReLU-4            [-1, 512, 8, 8]               0\n   ConvTranspose2d-5          [-1, 256, 16, 16]       2,097,152\n         LeakyReLU-6          [-1, 256, 16, 16]               0\n   ConvTranspose2d-7            [-1, 1, 32, 32]           4,096\n              Tanh-8            [-1, 1, 32, 32]               0\n================================================================\n(https://prnt.sc/n9jw6v)\n\nHow does this work internally?\n\nIn layer 1, are there 1024 filters each individually performing a convolution on the 100z vector? So there are 1024 kernels with a different learned feature of the 100z vector? Same thing for layer 2: 512 individual filters, each performing a convolution on all the prev
…
to increase the complexity of the CNN. But i'm not sure if i should add more layers or just increase the channels (1 channel is 1 filter?) per layer. For a simple DNN i can imagine what it does, more layers would result in more non-linearity. But for a CNN i'm not sure. \n\nOr if you flip this around, for the discriminator taking a 1x32x32 -----> image !!!  as input:\n\n----------------------------------------------------------------\n        Layer (type)               Output Shape         Param #\n================================================================\n            Conv2d-1          [-1, 128, 16, 16]           2,048\n         LeakyReLU-2          [-1, 128, 16, 16]               0\n            Conv2d-3            [-1, 256, 8, 8]         524,288\n         LeakyReLU-4            [-1, 256, 8, 8]               0\n            Conv2d-5            [-1, 512, 4, 4]       2,097,152\n         LeakyReLU-6            [-1, 512, 4, 4]               0\n            Conv2d-7              [-1, 1, 1, 1]           8,192\n           Sigmoid-8              [-1, 1, 1, 1]               0\n================================================================\n\n(https://prnt.sc/n9jw6v)\n\nLayer 1 (128x16x16) learns low abstractions, e.g. tree's, cars, faces or whatever. While layer 5 has high abstractions, e.g. lines on different angles. If you want to do a better classification on the input image being a face or not a face, would you simply just increase the amount of channels in the 
…
