…
1920,1080),(1792,1008),(1664,936),(1536,864),(1408,792),(1280,720),(1152,648),(1024,576),(896,504),(768,432),(640,360),(512,288),(384,216),(256,144),(128,72)\n\nI know that later I can only choose one or two resolutions, but for now I do all those resolutions and discard all results with threshold below 0.1.\n\nHere is also a summary of my network:\n\n    _________________________________________________________________\n    Layer (type)                 Output Shape              Param #   \n    =================================================================\n    conv1 (Conv2D)               (None, 28, 28, 32)        832       \n    _________________________________________________________________\n    batch_normalization_1038 (Ba (None, 28, 28, 32)        128       \n    _________________________________________________________________\n    leaky_re_lu_1038 (LeakyReLU) (None, 28, 28, 32)        0         \n    _________________________________________________________________\n    max_pooling2d_496 (MaxPoolin (None, 14, 14, 32)        0         \n    _________________________________________________________________\n    conv2 (Conv2D)               (None, 12, 12, 64)        18496     \n    _________________________________________________________________\n    batch_normalization_1039 (Ba (None, 12, 12, 64)        256       \n    _________________________________________________________________\n    leaky_re_lu_1039 (LeakyReLU) (None, 12, 12, 64)        0         \n    _________________________________________________________________\n    max_pooling2d_497 (MaxPoolin (None, 6, 6, 64)          0         \n    _________________________________________________________________\n    conv3 (Conv2D)               (None, 5, 5, 128)         32896     \n    _________________________________________________________________\n    batch_normalization_1040 (Ba (None, 5, 5, 128)         512       \n    _________________________________________________________________\n    leaky_re_lu_1040 (LeakyReLU) (None, 5, 5, 128)         0         \n    _________________________________________________________________\n    max_pooling2d_498 (MaxPoolin (None, 3, 3, 128)         0         \n    _________________________________________________________________\n    conv4 (Conv2D)               (None, 1, 1, 1152)        1328256   \n    _________________________________________________________________\n    conv5 (Conv2D)               (None, 1, 1, 1152)        1328256   \n    _________________________________________________________________\n    conv6 (Conv2D)               (None, 1, 1, 10)          11530     \n    =================================================================\n    Total params: 2,721,162\n    Trainable params: 2,720,714\n    Non-trainable params: 448\n\nIt is a bit \"bottom heavy\" at the moment, I will also fix that later.\n\nBelow you can see my cuurent result, there are some flaws with the actual size of the boxes, they are a bit to small, will fix that later.\n\n[Result --
…
 \n        model.add(MaxPooling2D(pool_size=(2, 2), padding='same'))\n        # conv 5\n        model.add(Conv2D(num_classes, (2, 2), activation='relu', padding='valid', name='conv5'))\n    \n    model.compile(loss=keras.losses.categorical_crossentropy, optimizer=keras.optimizers.Adam(),metrics=['accuracy'])\n        \n        model.summary()\n            \n        return model\n\nDimensions for different input: training\n\n    Layer (type)                 Output Shape              Param #\n    =================================================================\n    conv1 (Conv2D)               (None, 28, 28, 32)        320\n    _________________________________________________________________\n    batch_normalization_5 (Batch (None, 28, 28, 32)        128\n    _________________________________________________________________\n    leaky_re_lu_5 (LeakyReLU)    (None, 28, 28, 32)        0\n    _________________________________________________________________\n    max_pooling2d_5 (MaxPooling2 (None, 14, 14, 32)        0\n    _________________________________________________________________\n    conv2 (Conv2D)               (None, 14, 14, 64)        18496\n    _________________________________________________________________\n    batch_normalization_6 (Batch (None, 14, 14, 64)        256\n    _________________________________________________________________\n    leaky_re_lu_6 (LeakyReLU)    (None, 14, 14, 64)        0\n    _________________________________________________________________\n    max_pooling2d_6 (MaxPooling2 (None, 7, 7, 64)          0\n    _________________________________________________________________\n    conv3 (Conv2D)               (None, 7, 7, 128)         73856\n    _________________________________________________________________\n    batch_normalization_7 (Batch (None, 7, 7, 128)         512\n    _________________________________________________________________\n    leaky_re_lu_7 (LeakyReLU)    (None, 7, 7, 128)         0\n    _________________________________________________________________\n    max_pooling2d_7 (MaxPooling2 (None, 4, 4, 128)         0\n    _________________________________________________________________\n    conv4 (Conv2D)               (None, 4, 4, 64)          73792\n    _________________________________________________________________\n    batch_normalization_8 (Batch (None, 4, 4, 64)          256\n    _________________________________________________________________\n    leaky_re_lu_8 (LeakyReLU)    (None, 4, 4, 64)          0\n    _________________________________________________________________\n    max_pooling2d_8 (MaxPooling2 (None, 2, 2, 64)          0\n    _________________________________________________________________\n    conv5 (Conv2D)               (None, 1, 1, 10)          2570\n    =================================================================\n    Total params: 170,186\n    Trainable params: 169,610\n    Non-trainable params: 576\n\nDimensions for different input: FullHD (inference)\n\n    Layer (type)                 Output Shape              Param #   \n    =================================================================\n    conv1 (Conv2D)               (None, 1080, 1920, 32)    320       \n    _________________________________________________________________\n    batch_normalization_11 (Batc (None, 1080, 1920, 32)    128       \n    _________________________________________________________________\n    leaky_re_lu_11 (LeakyReLU)   (None, 1080, 1920, 32)    0         \n    _________________________________________________________________\n    max_pooling2d_11 (MaxPooling (None, 540, 960, 32)      0         \n    _________________________________________________________________\n    conv2 (Conv2D)               (None, 540, 960, 64)      18496     \n    _________________________________________________________________\n    batch_normalization_12 (Batc (None, 540, 960, 64)      256       \n    _________________________________________________________________\n    leaky_re_lu_12 (LeakyReLU)   (None, 540, 960, 64)      0         \n    _________________________________________________________________\n    max_pooling2d_12 (MaxPooling (None, 270, 480, 64)      0         \n    _________________________________________________________________\n    conv3 (Conv2D)               (None, 270, 480, 128)     73856     \n    _________________________________________________________________\n    batch_normalization_13 (Batc (None, 270, 480, 128)     512       \n    _________________________________________________________________\n    leaky_re_lu_13 (LeakyReLU)   (None, 270, 480, 128)     0         \n    _________________________________________________________________\n    max_pooling2d_13 (MaxPooling (None, 135, 240, 128)     0         \n    _________________________________________________________________\n    conv4 (Conv2D)               (None, 135, 240, 64)      73792     \n    _________________________________________________________________\n    batch_normalization_14 (Batc (None, 135, 240, 64)      256       \n    _________________________________________________________________\n    leaky_re_lu_14 (LeakyReLU)   (None, 135, 240, 64)      0         \n    _________________________________________________________________\n    max_pooling2d_14 (MaxPooling (None, 68, 120, 64)       0         \n    _________________________________________________________________\n    conv5 (Conv2D)               (None, 67, 119, 10)       2570      \n    =================================================================\n    Total params: 170,186\n    Trainable params: 169,610\n    Non-trainable params: 576\n    _________________________________________________________________", "link": "https://www.reddit.com/r/learnmachinelearning/comments/fdykh2/keras_inference_on_big_images_learning_on_small/"}, {"autor": "deadpool3727", "date": "20
…
pStrategy", "date": "2020-03-04 09:32:31", "content": "Train network in keras consisting only of conv2d layers /!/ Hi fellows, \n\nI trained my own model in keras on mnist. I only got conv2d layers because I want to train the network on small images (mnist: 28x28 px) and later do the inference on large images 1920x1080. \n\nMy model (for training):\n\n    _________________________________________________________________\n    Layer (type)                 Output Shape              Param #   \n    =================================================================\n    conv1 (Conv2D)               (None, 28, 28, 64)        640       \n    _________________________________________________________________\n    batch_normalization_117 (Bat (None, 28, 28, 64)        256       \n    _________________________________________________________________\n    leaky_re_lu_117 (LeakyReLU)  (None, 28, 28, 64)        0         \n    _________________________________________________________________\n    max_pooling2d_119 (MaxPoolin (None, 14, 14, 64)        0         \n    _________________________________________________________________\n    conv2 (Conv2D)               (None, 14, 14, 128)       73856     \n    _________________________________________________________________\n    batch_normalization_118 (Bat (None, 14, 14, 128)       512       \n    _________________________________________________________________\n    leaky_re_lu_118 (LeakyReLU)  (None, 14, 14, 128)       0         \n    _________________________________________________________________\n    max_pooling2d_120 (MaxPoolin (None, 7, 7, 128)         0         \n    _________________________________________________________________\n    conv3 (Conv2D)               (None, 7, 7, 256)         295168    \n    _________________________________________________________________\n    batch_normalization_119 (Bat (None, 7, 7, 256)         1024      \n    _________________________________________________________________\n    leaky_re_lu_119 (LeakyReLU)  (None, 7, 7, 256)         0         \n    _________________________________________________________________\n    max_pooling2d_121 (MaxPoolin (None, 4, 4, 256)         0         \n    _________________________________________________________________\n    conv4 (Conv2D)               (None, 4, 4, 128)         295040    \n    _________________________________________________________________\n    batch_normalization_120 (Bat (None, 4, 4, 128)         512       \n    _________________________________________________________________\n    leaky_re_lu_120 (LeakyReLU)  (None, 4, 4, 128)         0         \n    _________________________________________________________________\n    max_pooling2d_122 (MaxPoolin (None, 2, 2, 128)         0         \n    _________________________________________________________________\n    conv5 (Conv2D)               (None, 1, 1, 10)          5130      \n    =================================================================\n    Total params: 672,138\n    Trainable params: 670,986\n    Non-trainable params: 1,152\n\nFor inference:\n\n    _________________________________________________________________\n    Layer (type)                 Output Shape              Param #   \n    =================================================================\n    conv1 (Conv2D)               (None, 1920, 1080, 64)    640       \n    _________________________________________________________________\n    batch_normalization_113 (Bat (None, 1920, 1080, 64)    256       \n    _________________________________________________________________\n    leaky_re_lu_113 (LeakyReLU)  (None, 1920, 1080, 64)    0         \n    _________________________________________________________________\n    max_pooling2d_115 (MaxPoolin (None, 960, 540, 64)      0         \n    _________________________________________________________________\n    conv2 (Conv2D)               (None, 960, 540, 128)     73856     \n    _________________________________________________________________\n    batch_normalization_114 (Bat (None, 960, 540, 128)     512       \n    _________________________________________________________________\n    leaky_re_lu_114 (LeakyReLU)  (None, 960, 540, 128)     0         \n    _________________________________________________________________\n    max_pooling2d_116 (MaxPoolin (None, 480, 270, 128)     0         \n    _________________________________________________________________\n    conv3 (Conv2D)               (None, 480, 270, 256)     295168    \n    _________________________________________________________________\n    batch_normalization_115 (Bat (None, 480, 270, 256)     1024      \n    _________________________________________________________________\n    leaky_re_lu_115 (LeakyReLU)  (None, 480, 270, 256)     0         \n    _________________________________________________________________\n    max_pooling2d_117 (MaxPoolin (None, 240, 135, 256)     0         \n    _________________________________________________________________\n    conv4 (Conv2D)               (None, 240, 135, 128)     295040    \n    _________________________________________________________________\n    batch_normalization_116 (Bat (None, 240, 135, 128)     512       \n    _________________________________________________________________\n    leaky_re_lu_116 (LeakyReLU)  (None, 240, 135, 128)     0         \n    _________________________________________________________________\n    max_pooling2d_118 (MaxPoolin (None, 120, 68, 128)      0         \n    _________________________________________________________________\n    conv5 (Conv2D)               (None, 119, 67, 10)       5130      \n    =================================================================\n    Total params: 672,138\n    Trainable params: 670,986\n    Non-trainable params: 1,152\n\nGoal here is to create a convolved -----> image !!!  with the dimensions of my output classes, which represent the sliding windows in my large -----> image !!!  for inference.\n\nBut keras will not let me train, because in the l
…
n_tensorflow_20/"}, {"autor": "terribleprogrammer12", "date": "2020-05-14 18:44:08", "content": "What is wrong with my CNN model? /!/ Hello everyone,\n\nI worked my way through the Google Machine Learning Course and built my own convnet. I pretrained on InceptionV3 then fed a combination of color and grayscale data into my program. I eventually converged with a good val loss and accuracy.\n\nHere is a condensed version of my model summary\n\nModel: \"model_1\"\n\nLayer (type)                    Output Shape         Param    Connected to                     \n\ninput_2 (InputLayer)            [(None, 150, 150, 3) 0                                            \n__________________________________________________________________________________________________\nconv2d_94 (Conv2D)              (None, 74, 74, 32)   864         input_2[0][0]                    \n__________________________________________________________________________________________________\nbatch_normalization_v1_94 (Batc (None, 74, 74, 32)   96          conv2d_94[0][0]                  \n__________________________________________________________________________________________________\nactivation_94 (Activation)      (None, 74, 74, 32)   0           batch_normalization_v1_94[0][0]  \n__________________________________________________________________________________________________\nconv2d_95 (Conv2D)              (None, 72, 72, 32)   9216        activation_94[0][0]              \n__________________________________________________________________________________________________\nbatch_normalization_v1_95 (Batc (None, 72, 72, 32)   96          conv2d_95[0][0]                  \n__________________________________________________________________________________________________\nactivation_95 (Activation)      (None, 72, 72, 32)   0           batch_normalization_v1_95[0][0]  \n__________________________________________________________________________________________________\nconv2d_96 (Conv2D)              (None, 72, 72, 64)   18432       activation_95[0][0]              \n\n______________\nmixed7 (Concatenate)            (None, 7, 7, 768)    0           activation_154[0][0]             \n                                                                 activation_157[0][0]             \n                                                                 activation_162[0][0]             \n                                                                 activation_163[0][0]             \n__________________________________________________________________________________________________\nflatten_1 (Flatten)             (None, 37632)        0           mixed7[0][0]                     \n__________________________________________________________________________________________________\ndense_2 (Dense)                 (None, 1024)         38536192    flatten_1[0][0]                  \n__________________________________________________________________________________________________\ndropout_1 (Dropout)             (None, 1024)         0           dense_2[0][0]                    \n__________________________________________________________________________________________________\ndense_3 (Dense)                 (None, 1)            1025        dropout_1[0][0]                  \n\nTotal params: 47,512,481\nTrainable params: 40,677,249\nNon-trainable params: 6,835,232\n____________________________________\n\nHowever, I attempted to deploy my neural net using this script.\n\n\n    import cv2\n    import tensorflow as tf\n\n\n    def prepare(filepath):\n        IMG_SIZE = 150\n   \n        img_array = cv2.imread(filepath)\n        n
…
