…
    decoder = keras.Model(inputs=dec_input, outputs=dec0, name='Decoder')\n    \n    encoder.summary()\n    decoder.summary()\n\nThis creates a beautifully symmetric computation graph:\n\n    Model: \"Encoder\"\n    _________________________________________________________________\n    Layer (type)                 Output Shape              Param #   \n    =================================================================\n    input_5 (InputLayer)         [(None, 48, 48, 3)]       0         \n    _________________________________________________________________\n    conv2d_9 (Conv2D)            (None, 24, 24, 32)        2432      \n    _________________________________________________________________\n    conv2d_10 (Conv2D)           (None, 12, 12, 64)        32832     \n    _________________________________________________________________\n    conv2d_11 (Conv2D)           (None, 6, 6, 128)         73856     \n    _________________________________________________________________\n    flatten_3 (Flatten)          (None, 4608)              0         \n    _________________________________________________________________\n    dense_8 (Dense)              (None, 256)               1179904   \n    _________________________________________________________________\n    dense_9 (Dense)              (None, 64)                16448     \n    =================================================================\n    Total params: 1,305,472\n    \n    \n    \n    \n    Model: \"Decoder\"\n    _________________________________________________________________\n    Layer (type)                 Output Shape              Param #   \n    =================================================================\n    input_6 (InputLayer)         [(None, 64)]              0         \n    _________________________________________________________________\n    dense_10 (Dense)             (None, 256)               16640     \n    _________________________________________________________________\n    dense_11 (Dense)             (None, 4608)              1184256   \n    _________________________________________________________________\n    reshape_1 (Reshape)          (None, 6, 6, 128)         0         \n    _________________________________________________________________\n    conv2d_transpose_3 (Conv2DTr (None, 12, 12, 64)        73792     \n    _________________________________________________________________\n    conv2d_transpose_4 (Conv2DTr (None, 24, 24, 32)        32800     \n    _________________________________________________________________\n    conv2d_transpose_5 (Conv2DTr (None, 48, 48, 3)         2403      \n    =================================================================\n    Total params: 1,309,891", "link": "https://www.reddit.com/r/MachineLearning/comments/eenvdf/should_autoencoders_be_symmetric/"}, {"autor": "bharathsh36", "date": "2019-12-23 15:40:34", "content": "What are some of the best practices when it comes to building a -----> image !!!  detection model? /!/ Also what are som
…
