…
ch.save(model.state_dict()).\nFor example loading GG-CNN (replace ggcnn with ggcnn2 as required):\n# Enter the directory where you cloned this repo\ncd /path/to/ggcnn\n# Download the weights\nwget https://github.com/dougsm/ggcnn/releases/download/v0.1/ggcnn_weights_cornell.zip\n# Unzip the weights.\nunzip ggcnn_weights_cornell.zip\n# Load the weights in python, e.g.\npython\n>>> import torch\n# Option 1) Load the model directly.\n# (this may print warning based on the installed version of python)\n>>> model = torch.load('ggcnn_weights_cornell/ggcnn_epoch_23_cornell')\n>>> model\nGGCNN(\n(conv1): Conv2d(1, 32, kernel_size=(9, 9), stride=(3, 3), padding=(3, 3))\n(conv2): Conv2d(32, 16, kernel_size=(5, 5), stride=(2, 2), padding=(2, 2))\n(conv3): Conv2d(16, 8, kernel_size=(3, 3), stride=(2, 2), padding=(1, 1))\n(convt1): ConvTranspose2d(8, 8, kernel_size=(3, 3), stride=(2, 2), padding=(1, 1), output_padding=(1, 1))\n(convt2): ConvTranspose2d(8, 16, kernel_size=(5, 5), stride=(2, 2), padding=(2, 2), output_padding=(1, 1))\n(convt3): ConvTranspose2d(16, 32, kernel_size=(9, 9), stride=(3, 3), padding=(3, 3), output_padding=(1, 1))\n(pos_output): Conv2d(32, 1, kernel_size=(2, 2), stride=(1, 1))\n(cos_output): Conv2d(32, 1, kernel_size=(2, 2), stride=(1, 1))\n(sin_output): Conv2d(32, 1, kernel_size=(2, 2), stride=(1, 1))\n(width_output): Conv2d(32, 1, kernel_size=(2, 2), stride=(1, 1))\n)\n# Option 2) Instantiate a model and load the weights.\n>>> from models.ggcnn import GGCNN\n>>> model = GGCNN()\n>>> model.load_state_dict(torch.load('ggcnn_weights_cornell/ggcnn_epoch_23_cornell_statedict.pt'))\n<All keys matched successfully>\nTraining\nTraining is done by the train_ggcnn.py script. Run train_ggcnn.py --help to see a full list of opti
…
